unity/SBGamesMLAgents/Assets/FlappyBird/TFModels/FlappyAgentLevel2.onnx (onnx, 102775 bytes, 6 tensors)

network_body._body_endoder.seq_layers.0.weight f4 [128, 59]
0.0886924 -0.15662667 -0.05904408 0.0046574255 0.08503046 -0.12100352 0.14493157 0.21156949
-0.12671322 0.09411396 -0.051113036 0.15011062 -0.102017485 0.09743422 -0.22699502 -0.06580295
0.14405072 0.3318828 -0.32743067 0.038419444 -0.13994817 -0.06856886 0.020492507 0.005985736
-0.17626972 -0.07412717 -0.2802355 -0.38276988 0.002740303 -0.14932124 0.01895701 -0.18262398
-0.0026048005 -0.1603093 -0.0047160336 -0.05363547 -0.27766043 -0.0045820237 -0.013678749 0.21619573
-0.05774474 -0.036164973 0.09149237 0.112373255 -0.2950882 -0.15801366 -0.016200684 -0.0067986166
-0.08290464 -0.004527543 0.14394026 -0.022283271 0.12711227 -0.0077280193 -0.04090884 0.10893556
0.24752416 -0.14233354 -0.09821687 0.049565293 0.12160001 -0.02436448 0.08480988 -0.034909707
0.07633006 -0.10526214 0.075887956 -0.0032854946 -0.13486926 0.21800445 -0.09728492 0.11521091
0.08125328 0.08147399 0.07373127 0.1360895 0.1789433 0.019281443 -0.03505716 0.004779449
0.1642857 0.08009906 -0.023179445 0.13418718 -0.03630176 -0.23581773 -0.016112601 -0.11140738
0.012019285 -0.07084544 0.14994466 -0.09469923 -0.07816223 -0.07456303 -0.012025671 0.22639701
-0.03760395 -0.048828866 0.16541533 -0.08237851 0.13313629 0.17664327 -0.011375639 -0.022677543
0.024599468 -0.030341895 -0.200905 0.2698385 -0.0219223 0.13150626 0.07347109 -0.06653345
-0.035620984 -0.0023875649 0.1979137 -0.24347988 -0.044344734 -0.026448304 0.07059368 -0.007162167
0.013720196 0.1365001 0.10468945 -0.13355552 -0.08895679 -0.025101619 -0.022935791 0.1781847
-0.10623967 -0.10071511 0.09477238 -0.14855859 0.025679417 0.11838765 0.109621756 0.22304194
0.1010234 0.03311396 -0.05077715 0.11084815 -0.07701177 -0.10316316 0.11761721 0.1579485
-0.1376975 -0.05828724 -0.13039608 0.21989836 -0.38666496 0.14911725 -0.13122004 0.05673583
-0.12077594 0.17843638 0.16723621 -0.17257546 -0.080462106 0.050608233 -0.14589228 -0.019001989
0.13234605 0.04057089 -0.08911692 0.038225193 -0.06671278 0.14995033 -0.12951204 0.29315534
0.045454167 0.039757956 0.031111035 0.05375707 0.1388792 0.28877068 0.008310573 0.009698136
0.0138614625 -0.1172095 0.015578142 -0.11157166 0.028702617 -0.10362549 0.13458376 -0.08532829
0.13391349 -0.055342384 0.1661461 -0.049148154 -0.020015122 -0.071268685 -0.08502508 -0.20364928
0.012883154 -0.039276987 0.006403307 0.13071766 -0.004648248 0.017871829 0.23777519 -0.029208658
0.17665115 -0.050459247 0.099033535 0.14990625 0.03450222 0.14397906 0.15154761 -0.06681189
-0.15692331 0.16811393 0.029927578 0.06727194 -0.17732501 0.0050756177 -0.08185899 0.0797115
-0.07982245 0.25737527 -0.03196704 0.25951576 0.20040852 -0.053004853 0.2660259 0.24266073
0.039836094 -0.32954755 0.08005777 -0.010289424 -0.01624468 0.0071115335 -0.009122836 -0.25973132
0.24760573 -0.21554662 0.013465749 0.052432783 0.028834663 0.011893312 0.3004665 -0.05645742
-0.044505395 0.10163303 0.008854441 0.076669194 0.16783169 0.09723455 -0.06391994 0.20187116
-0.24315633 0.005698598 0.13581313 -0.29304558 0.18757944 0.12647028 0.19001481 -0.045624606
00000000: 5ca4 b53d be62 20be 35d8 71bd 519d 983b
00000010: 7324 ae3d b2d0 f7bd f168 143e aca5 583e
00000020: 1cc1 01be d2be c03d e75b 51bd 99b6 193e
00000030: 8bee d0bd 988b c73d 6271 68be b2c3 86bd
00000040: 0882 133e 8bec a93e fea4 a7be b55d 1d3d
00000050: 934e 0fbe d56d 8cbd e7df a73c fe23 c43b
00000060: 0d80 34be fccf 97bd 077b 8fbe 6afa c3be
00000070: a896 333b abe7 18be bb4b 9b3c c801 3bbe
00000080: 4db5 2abb 1f28 24be f588 9abb deb0 5bbd
00000090: 8229 8ebe cd24 96bb d51c 60bc 6a62 5d3e
000000a0: c085 6cbd b921 14bd 5a60 bb3d f323 e63d
000000b0: cd15 97be 55ce 21be 4cb7 84bc eec6 debb
000000c0: e8c9 a9bd c95b 94bb 1365 133e 688b b6bc
000000d0: b829 023e 533b fdbb 0790 27bd 9b19 df3d
000000e0: f976 7d3e e2bf 11be ed25 c9bd fa04 4b3d
000000f0: 6d09 f93d 0598 c7bc cdb0 ad3d 7bfd 0ebd
00000100: ef52 9c3d ad93 d7bd 256b 9b3d 7451 57bb
00000110: 2b1b 0abe 8f3c 5f3e 513d c7bd b3f3 eb3d
00000120: 1f68 a63d d6db a63d 6c00 973d 0c5b 0b3e
00000130: ea3c 373e 1ef4 9d3c 1998 0fbd ed9c 9c3b
00000140: 833a 283e fa0a a43d d2e2 bdbc 5d68 093e
00000150: 27b1 14bd 347a 71be 93fe 83bc 8d29 e4bd
00000160: 89ec 443c 6a17 91bd 188b 193e abf1 c1bd
00000170: 8513 a0bd 80b4 98bd 5207 45bc 9ed4 673e
00000180: 9906 1abd c700 48bd a362 293e 10b6 a8bd
00000190: e154 083e f9e1 343e e360 3abc 41c6 b9bc
000001a0: d384 c93c 918f f8bc 0aba 4dbe 4628 8a3e
000001b0: 6596 b3bc 94a9 063e 0378 963d b042 88bd
000001c0: 4fe7 11bd b178 1cbb e4a9 4a3e ca52 79be
000001d0: d3a2 35bd 1daa d8bc 6b93 903d 9db0 eabb
000001e0: acca 603c afc6 0b3e 6c67 d63d c7c2 08be
000001f0: fa2e b6bd e9a1 cdbc d7e3 bbbc 0d76 363e
00000200: 2f94 d9bd b943 cebd 0618 c23d be1f 18be
00000210: a45d d23c 3975 f23d 5f81 e03d 1b65 643e
00000220: 5be5 ce3d 81a2 073d b3fb 4fbd 5b04 e33d
00000230: 59b8 9dbd 3547 d3bd 4be1 f03d 40bd 213e
00000240: 9300 0dbe 9abe 6ebd 8d86 05be 092d 613e
00000250: f3f8 c5be 31b2 183e 8c5e 06be d463 683d
00000260: 6059 f7bd 07b8 363e f83f 2b3e 9fb7 30be
00000270: 51c9 a4bd 944a 4f3d c964 15be 0faa 9bbc
00000280: b985 073e a92d 263d ef82 b6bd 0592 1c3d
00000290: b6a0 88bd 948c 193e ce9e 04be 7518 963e
000002a0: 262e 3a3d 3dd9 223d 92dc fe3c 6030 5c3d
000002b0: 5936 0e3e c0d9 933e 1229 083c eee4 1e3c
000002c0: 301b 633c 890b f0bd 773b 7f3c af7f e4bd
000002d0: c021 eb3c 9a39 d4bd 53d0 093e 99c0 aebd
000002e0: 9e20 093e b2ae 62bd 3422 2a3e 934f 49bd
000002f0: c1f6 a3bc 51f5 91bd a121 aebd 7089 50be
00000300: dd13 533c e8e0 20bd d5d2 d13b dada 053e
00000310: 5550 98bb f167 923c 577b 733e ff46 efbc
00000320: 0ae4 343e 5bae 4ebd 18d2 ca3d 0681 193e
00000330: 3352 0d3d 3f6f 133e 4c2f 1b3e acd4 88bd
00000340: 81b0 20be 0f26 2c3e ae2a f53c dfc5 893d
00000350: b094 35be 5e51 a63b b0a5 a7bd c83f a33d
00000360: f479 a3bd b1c6 833e dfef 02bd 40df 843e
00000370: e437 4d3e 9e1b 59bd 8c34 883e 0e7c 783e
00000380: 2c2b 233d 75ba a8be 54f5 a33d f994 28bc
00000390: 9013 85bc de07 e93b f377 15bc 81fb 84be
000003a0: 5b8c 7d3e 41b8 5cbe 729f 5c3c c2c3 563d
000003b0: ac36 ec3c 2bdc 423c bfd6 993e e53f 67bd
000003c0: 4a4b 36bd fa24 d03d 3812 113c bd04 9d3d
000003d0: 12dc 2b3e e822 c73d 75e8 82bd 50b7 4e3e
000003e0: f9fd 78be 4ebb ba3b 9912 0b3e 120a 96be
000003f0: d314 403e 6d81 013e 3e93 423e dee0 3abd

network_body._body_endoder.seq_layers.0.bias f4 [128]
-0.012283375 0.0203708 -0.0032943531 0.015170769 0.02161523 0.014563199 0.0069502066 0.0053391703
-0.010324489 -0.0062541356 0.03487073 -0.013437676 0.024809198 0.030529892 0.03910973 -0.013892627
0.012290433 0.012373224 0.033280056 -0.0067507187 0.024226302 0.02424961 0.033258848 0.0069606886
-0.002545443 -0.00080020144 0.0074782884 -0.018324317 -0.042469375 0.013827739 0.0066481614 0.01869093
-0.04300066 -0.030281436 0.052892085 0.039168384 0.061101243 0.058910612 0.0431653 0.023833929
-0.016507873 0.020393377 0.019464387 0.04046121 0.016169284 0.0074450644 -0.014705419 -0.010582351
0.05224212 -0.044740167 -0.01971864 -0.008674748 0.009893434 0.016723873 0.028658899 -0.050375517
0.027301608 0.021968134 -0.032644164 0.035069276 0.02576866 0.034027386 -0.006760543 0.027745975
-0.038573317 0.03031959 0.03731413 0.018388698 0.047728583 -0.0058497656 -0.017217334 0.0076251016
0.007815084 0.021219723 0.024079472 -0.03629605 0.022214139 0.015727453 0.009910426 -0.030560104
0.025166787 -0.052059416 0.00853052 0.020663075 -0.0012777654 0.0046012783 0.025642613 0.03523941
-0.049348064 0.0027284576 -0.015547084 0.023076734 -0.019501785 -0.022824649 0.042138934 0.01921705
0.0062205186 -0.0396634 0.024856124 -0.0036678892 0.013081685 0.03297689 -0.02742853 -0.033105627
-0.027506126 0.037118018 -0.004837502 0.035324033 -0.00013354977 0.040394954 -0.0129130725 0.03005157
0.022848118 0.0029376417 0.022489324 0.02232767 -0.0139724165 -0.002478025 -0.04082617 0.023972804
0.020675695 0.037784394 0.013429305 0.060002502 0.026932597 -0.0185563 0.014146292 0.021278925
00000000: 3540 49bc aae0 a63c 13e6 57bb d18e 783c
00000010: 6c12 b13c 7c9a 6e3c 8fbe e33b 35f4 ae3b
00000020: 0c28 29bc 7eef ccbb 9cd4 0e3d b329 5cbc
00000030: a93c cb3c d319 fa3c 8631 203d e79d 63bc
00000040: d05d 493c 10b9 4a3c ab50 083d 2235 ddbb
00000050: 3d76 c63c 1ea7 c63c 6e3a 083d 7d16 e43b
00000060: 72d1 26bb 9cc4 51ba 6e0c f53b e11c 96bc
00000070: 5ef4 2dbd be8d 623c d2d8 d93b b91d 993c
00000080: 7621 30bd c610 f8bc 5fa5 583d 076f 203d
00000090: 4c45 7a3d 414c 713d 19ce 303d 5f3f c33c
000000a0: 853b 87bc 0310 a73c c773 9f3c a7ba 253d
000000b0: 7275 843c baf5 f33b ffee 70bc 9961 2dbc
000000c0: d5fb 553d 7741 37bd fc88 a1bc 8820 0ebc
000000d0: 1218 223c 8100 893c 11c6 ea3c 8f56 4ebd
000000e0: 9fa7 df3c 84f6 b33c e3b5 05bd cda4 0f3d
000000f0: cc18 d33c 4d60 0b3d 8c87 ddbb 874b e33c
00000100: 0eff 1dbd ca60 f83c b4d6 183d e5a3 963c
00000110: 0c7f 433d 64af bfbb 5e0b 8dbc fddb f93b
00000120: d70a 003c fcd4 ad3c 5042 c53c 2bab 14bd
00000130: 6dfa b53c dcd6 803c 575f 223c 2f59 fabc
00000140: 942a ce3c 413c 55bd 98c3 0b3c 9c45 a93c
00000150: b17a a7ba 52c6 963b 7510 d23c 3357 103d
00000160: 3221 4abd eccf 323b 32b9 7ebc 6b0b bd3c
00000170: 35c2 9fbc c2fa babc e099 2c3d 136d 9d3c
00000180: 7ed5 cb3b 1776 22bd 129f cb3c f860 70bb
00000190: 9054 563c c712 073d ccb1 e0bc c499 07bd
000001a0: 8754 e1bc 1009 183d e883 9ebb efaf 103d
000001b0: 7e09 0cb9 2e75 253d 5a91 53bc b62e f63c
000001c0: fa2b bb3c 7385 403b 883b b83c 85e8 b63c
000001d0: 90ec 64bc 5c66 22bb 5839 27bd 9d62 c43c
000001e0: 1360 a93c cfc3 1a3d 9606 5c3c 2fc5 753d
000001f0: c0a1 dc3c 6203 98bc d9c5 673c 2451 ae3c

network_body._body_endoder.seq_layers.2.weight f4 [128, 128]
-0.021397727 -0.0049467534 -0.044636607 -0.0022827068 -0.01477587 -0.07267771 0.11323019 0.037255455
-0.07720334 -0.07636888 0.07327084 -0.06347513 -0.13762215 -0.0886474 0.0945773 0.08585024
0.051096957 -0.11946696 0.10281659 -0.0026390937 -0.05776421 -0.0621279 -5.335474e-05 0.16925722
0.044678453 -0.023682645 0.018877868 -0.17578897 0.022006009 0.08432213 -0.10522337 0.14425465
-0.09950078 -0.10567216 0.033562414 0.07817601 0.16913074 -0.04065908 0.092082225 0.06639595
-0.10653732 -0.030491902 -0.0586313 0.008055383 0.07162518 0.0002127147 -0.16093563 -0.04674492
-0.10917663 -0.08035214 -0.18343814 -0.09748547 -0.029463474 0.16871765 0.115655765 -0.04576074
-0.061415955 -0.041094206 -0.10695083 0.15884672 -0.011555271 0.19318783 0.007736029 -0.21190901
-0.024366895 -0.12390942 0.044731773 -0.027542202 0.045665514 0.062162362 -0.028817115 0.050485205
0.110189885 0.09322804 -0.11639923 -0.052165397 0.07529123 0.015689023 0.16986957 -0.14439914
-0.05797973 -0.041791033 -0.118329324 0.029794373 -0.02204923 -1.48348545e-05 0.19546424 0.20465432
-0.11470069 -0.015330504 0.08740907 -0.12439813 0.05688004 -0.040930804 0.0031039268 -0.055833768
-0.05050459 0.06569448 -0.040187612 0.04021777 -0.17018843 0.09473908 0.12368943 0.07922917
0.07325965 -0.044321414 -0.19780172 -0.01070094 -0.034050163 0.0032159556 -0.1086581 0.07218909
0.03879856 0.040536296 -0.06693694 -0.029050736 -0.08814935 0.12354484 -0.10813123 -0.10101222
0.043005712 -0.08942208 -0.070072465 -0.020340364 -0.009943695 -0.046547268 -0.034135308 -0.08581325
0.07034793 0.11296896 0.0014333129 -0.013668706 -0.033933245 -0.022523154 -0.044082057 0.0055365013
0.033540957 -0.010648774 0.10456346 -0.13171624 -0.16040076 -0.13119031 -0.0037195575 -0.16899395
0.08217456 -0.028868262 0.13321443 -0.03034562 -0.07790299 0.009479307 -0.055697862 -0.10595009
0.07818735 0.07172805 0.040337097 -4.8907896e-06 0.0034274447 0.18119945 -0.017263098 -0.031870663
-0.04332675 -0.030036086 0.14837724 0.1497513 0.21328662 0.08506314 -0.009621023 0.15150012
-0.07327176 -0.002547855 -0.047672827 0.11019876 -0.11063607 0.011922942 -0.008937408 0.0023205944
-0.12055309 -0.12627968 -0.044824444 0.048552487 0.1958973 0.08704862 0.03482038 0.043824844
-0.05598756 0.06186685 -0.055000618 -0.035574194 -0.039333627 0.05165018 -0.20463131 0.0027094034
-0.2092101 -0.011388272 0.04518281 -0.00848791 0.19196577 -0.03823724 0.101588525 0.0017985577
0.21641843 0.16835676 -0.20619024 0.105313934 -0.05178215 -0.06652179 -0.0080202175 0.12243747
-0.0708982 -0.115010045 0.1925916 -0.035806116 -0.02280899 -0.063113555 0.19356184 0.080746785
-0.03839492 0.21772937 -0.315485 -0.090546094 -0.011550202 -0.06275577 0.1799041 0.1301187
-0.09370408 0.08311224 -0.048444305 -0.08850581 -0.08581637 0.094707556 0.20262009 0.060296003
0.106078506 0.020556517 0.094730705 -0.040317245 0.15953945 0.16020234 -0.1450015 0.22784148
0.09517953 0.025821041 -0.054468315 -0.049233526 -0.104852274 -0.044137467 -0.006565231 -0.06250128
0.1302989 -0.06636129 -0.03639897 -0.071115114 -0.019793166 0.093694374 -0.15725498 -0.016461521
00000000: 494a afbc 6018 a2bb e0d4 36bd 7799 15bb
00000010: 7e16 72bc 0dd8 94bd 3be5 e73d 2d99 183d
00000020: c91c 9ebd 4a67 9cbd 060f 963d 40ff 81bd
00000030: d2ec 0cbe c58c b5bd beb1 c13d 40d2 af3d
00000040: 0b4b 513d 18ab f4bd 8191 d23d a5f4 2cbb
00000050: 2a9a 6cbd d379 7ebd 37c9 5fb8 c451 2d3e
00000060: c100 373d 1b02 c2bc c2a5 9a3c 0602 34be
00000070: f245 b43c 15b1 ac3d 5a7f d7bd 7eb7 133e
00000080: 11c7 cbbd a56a d8bd be78 093d be1a a03d
00000090: 9c30 2d3e 238a 26bd 9b95 bc3d 9afa 873d
000000a0: 3d30 dabd 27ca f9bc 6027 70bd bafa 033c
000000b0: 39b0 923d 2b0c 5f39 4fcc 24be 9a77 3fbd
000000c0: ff97 dfbd aa8f a4bd 35d7 3bbe 76a6 c7bd
000000d0: 625d f1bc 52c4 2c3e eedc ec3d 9d6f 3bbd
000000e0: 4c8f 7bbd 6652 28bd 0909 dbbd b7a8 223e
000000f0: 5252 3dbc 08d3 453e 847e fd3b adfe 58be
00000100: 159d c7bc 39c4 fdbd aa38 373d 2fa0 e1bc
00000110: c30b 3b3d f69d 7e3d df11 ecbc 93c9 4e3d
00000120: 3cab e13d 58ee be3d b862 eebd 62ab 55bd
00000130: 4a32 9a3d 4486 803c 4af2 2d3e 5edd 13be
00000140: 277c 6dbd 132d 2bbd a556 f2bd 5413 f43c
00000150: 96a0 b4bc 37e3 78b7 c727 483e e790 513e
00000160: 32e8 eabd cb2c 7bbc 8703 b33d 72c4 febd
00000170: 0bfb 683d 0fa7 27bd 406b 4b3b f3b1 64bd
00000180: e7dd 4ebd d48a 863d c49b 24bd 63bb 243d
00000190: e045 2ebe 9006 c23d e250 fd3d e742 a23d
000001a0: 2809 963d 5f8a 35bd 898c 4abe ff52 2fbc
000001b0: 2f78 0bbd c8c2 523b 2388 debd e0d7 933d
000001c0: 3deb 1e3d 6309 263d 3c16 89bd cffb edbc
000001d0: a587 b4bd 1405 fd3d e873 ddbd 7fdf cebd
000001e0: c226 303d ec22 b7bd 2782 8fbd d6a0 a6bc
000001f0: e1ea 22bc 59a8 3ebd 77d1 0bbd dbbe afbd
00000200: 9312 903d 455c e73d 00de bb3a b5f2 5fbc
00000210: 96fd 0abd 7a82 b8bc 638f 34bd 8a6b b53b
00000220: 3e62 093d 3278 2ebc 5e25 d63d 9fe0 06be
00000230: 1940 24be c156 06be d2c3 73bb c00c 2dbe
00000240: 234b a83d 227d ecbc 5d69 083e 6197 f8bc
00000250: 9a8b 9fbd 184f 1b3c 7123 64bd 5cfc d8bd
00000260: b020 a03d 28e6 923d 8338 253d 901b a4b6
00000270: fb9e 603b 598c 393e 576b 8dbc d08a 02bd
00000280: 6477 31bd 3d0e f6bc 34f0 173e 6858 193e
00000290: cf67 5a3e 9535 ae3d 7fa1 1dbc d922 1b3e
000002a0: 810f 96bd eaf9 26bb 9544 43bd e3af e13d
000002b0: 2a95 e2bd 7158 433c 356e 12bc 1d15 183b
000002c0: 8ae4 f6bd 764f 01be d699 37bd f9de 463d
000002d0: 4d99 483e 8c46 b23d d19f 0e3d ae81 333d
000002e0: 3653 65bd 1868 7d3d 5448 61bd 3fb6 11bd
000002f0: 4c1c 21bd 248f 533d df8a 51be 3f90 313b
00000300: 2c3b 56be e095 3abc 9c11 393d e010 0bbc
00000310: ad92 443e a79e 1cbd a50d d03d 95bd eb3a
00000320: cb9c 5d3e b765 2c3e 8923 53be d5ae d73d
00000330: 8519 54bd 943c 88bd 3b67 03bc 7fc0 fa3d
00000340: 1333 91bd 638a ebbd bb36 453e 6fa9 12bd
00000350: ebd9 babc ae41 81bd 1335 463e 925e a53d
00000360: fe43 1dbd 73f4 5e3e 4087 a1be 3b70 b9bd
00000370: 0f3d 3dbc 1986 80bd c838 383e d63d 053e
00000380: ede7 bfbd c036 aa3d 896d 46bd 8942 b5bd
00000390: 7ec0 afbd 09f6 c13d a47b 4f3e f1f8 763d
000003a0: b03f d93d 2466 a83c 2c02 c23d b223 25bd
000003b0: 4f5e 233e 150c 243e 467b 14be 474f 693e
000003c0: 7ced c23d a686 d33c 2b1a 5fbd 18a9 49bd
000003d0: cabc d6bd 7dc9 34bd 2621 d7bb ac00 80bd
000003e0: 136d 053e 6ee8 87bd 1617 15bd cda4 91bd
000003f0: 4725 a2bc d6e2 bf3d 7307 21be 50da 86bc

network_body._body_endoder.seq_layers.2.bias f4 [128]
0.012935041 0.028708702 0.013736372 -0.011870743 0.030460542 0.029019738 0.018568197 0.034893777
0.042767767 -0.014630226 0.02548607 0.004017438 0.032933827 0.0030962047 0.021960787 0.04036998
0.0048951907 0.016167443 0.022929706 0.0038524414 0.030532084 0.027168432 0.023467539 0.018039748
-0.017107077 0.021265814 0.012668659 0.03113846 0.025554512 0.0450982 0.017592795 0.01106914
0.016129786 0.0138407 0.017315257 0.02835868 0.019567499 0.013229334 0.020130351 -0.01660388
0.01850246 0.028010175 0.025310837 0.032565963 0.021546949 0.017483301 0.018190337 -0.0029724122
0.019711891 0.010572392 -0.013150132 0.042345755 0.0017678656 0.015681025 0.014830574 0.014138923
0.012484388 0.012277356 0.015725112 0.032949816 0.0048754564 0.0455143 0.008333192 0.025203677
0.016310086 0.017463146 0.011710753 -0.007841298 0.016641207 -0.006400975 0.017163055 0.025554322
0.019923761 0.018329721 0.0033330498 0.02044986 0.015971832 0.014565463 0.017227456 -0.009818764
0.026470585 0.02659441 0.013244177 0.019825308 0.02770264 0.005705614 0.003993083 0.029654846
0.017840503 -0.011522143 0.022502825 0.0130074425 -0.003020028 0.020553539 0.017358335 -0.00612077
0.016649922 0.030446464 0.013532657 0.01942935 0.006535233 0.027304556 0.0096126115 0.0021180427
0.023777401 0.01813108 -0.013274779 0.030667545 0.021244073 0.0036433092 0.02261487 -0.008296874
0.0076765204 0.025556887 0.0072564897 0.018041005 -0.010875578 0.024633717 -0.0008611609 0.031687606
0.009232821 0.03235495 -1.0693187e-05 0.025458146 0.020600999 0.02198824 -0.019470297 -0.008235291
00000000: 7fed 533c 832e eb3c 850e 613c 817d 42bc
00000010: 6388 f93c cdba ed3c 551c 983c c7ec 0e3d
00000020: 412d 2f3d 9eb3 6fbc 2ac8 d03c b6a4 833b
00000030: 9fe5 063d b2e9 4a3b 1ce7 b33c fe5a 253d
00000040: d667 a03b 9671 843c 14d7 bb3c 3e79 7c3b
00000050: 6c1e fa3c 5590 de3c ff3e c03c 18c8 933c
00000060: 2424 8cbc a535 ae3c 3590 4f3c 1516 ff3c
00000070: b257 d13c e4b8 383d c41e 903c 575b 353c
00000080: 9d22 843c 1ac4 623c bad8 8d3c 7650 e83c
00000090: 054c a03c d9bf 583c 68e8 a43c dc04 88bc
000000a0: 7992 973c 9875 e53c ac58 cf3c e363 053d
000000b0: 3a83 b03c 2439 8f3c e703 953c cdcc 42bb
000000c0: d57a a13c d337 2d3c a773 57bc be72 2d3d
000000d0: bab7 e73a 7e75 803c f0fb 723c f1a6 673c
000000e0: 528b 4c3c f726 493c f3d1 803c 63f6 063d
000000f0: 4bc2 9f3b 346d 3a3d f187 083c f177 ce3c
00000100: bb9c 853c df0e 8f3c 75de 3f3c ca78 00bc
00000110: 2453 883c 45bf d1bb 8999 8c3c 4c57 d13c
00000120: 2837 a33c 3628 963c 4c6f 5a3b 7786 a73c
00000130: 5cd7 823c fba3 6e3c 9820 8d3c e2de 20bc
00000140: d7d8 d83c 85dc d93c 1bfe 583c af68 a23c
00000150: a6f0 e23c 29f6 ba3b 68d8 823b b8ee f23c
00000160: 3f26 923c 5fc7 3cbc d857 b83c 2b1d 553c
00000170: a9eb 45bb e55f a83c 1133 8e3c bd90 c8bb
00000180: 6b65 883c dd6a f93c 14b8 5d3c 4d2a 9f3c
00000190: 8225 d63b cead df3c 377e 1d3c dcce 0a3b
000001a0: d3c8 c23c a187 943c 757e 59bc 813a fb3c
000001b0: 0d08 ae3c 96c4 6e3b d242 b93c 9def 07bc
000001c0: 528b fb3b ad5c d13c d9c7 ed3b bbca 933c
000001d0: 7b2f 32bc a6cc c93c 88bf 61ba ddca 013d
000001e0: 4245 173c a086 043d e366 33b7 9a8d d03c
000001f0: 6dc3 a83c ae20 b43c 2c80 9fbc 50ed 06bc

action_model._discrete_distribution.branches.0.weight f4 [2, 128]
-0.028349198 -0.04930963 0.037397124 0.034974944 0.068895005 0.07055528 0.043978374 -0.05459372
-0.0721101 0.03395857 -0.040096603 -0.024402427 -0.05426098 0.011413958 0.045489483 -0.03387255
-0.027022805 -0.037338987 -0.024092209 -0.04509553 -0.048898663 0.058520533 -0.013246559 0.043026924
0.0235393 0.026497332 -0.028722212 0.103594325 -0.0036665883 -0.05640769 0.03172112 -0.010043825
0.06320634 -0.009209874 -0.06281093 -0.022313388 0.03850421 0.013436195 0.037417777 0.012781896
-0.037749298 -0.034692973 0.06106555 -0.024111217 -0.04769233 0.038833126 0.058501665 -0.028980143
0.043059785 -0.039050132 -0.023465103 -0.05880261 0.046518385 -0.032471463 -0.017815387 0.010945805
-0.03044574 0.028714495 0.03588112 -0.03787988 -0.025734207 -0.02888313 -0.022492856 0.04392008
0.0332821 0.020156952 -0.038584176 0.018922823 0.033726808 -0.030137466 0.041043643 -0.06735799
0.05068259 -0.05123589 -0.036809944 0.042454146 0.045075905 -0.037422527 0.038565654 -0.010485917
-0.04628786 -0.021675967 0.016422147 -0.06921143 -0.032527592 -0.037937444 -0.032942288 -0.028656928
-0.01905175 0.020748463 0.05612533 -0.014588854 -0.034749616 -0.03217515 0.034673683 -0.03416285
0.054021835 0.04362487 0.036291946 -0.022019414 -0.027389644 -0.024066843 0.009579217 0.026918724
0.047573254 -0.07087662 0.022954918 -0.04716956 0.09026167 0.0058351792 -0.044243023 0.024298595
0.008553932 0.05138983 -0.026211394 -0.05337305 -0.027871704 0.045336153 -0.005488229 -0.080662385
-0.010103429 0.060146127 -0.019717628 -0.08910794 -0.04493667 0.061822206 0.006733977 -0.018704806
0.035479523 0.046303973 -0.029806433 -0.028865168 -0.059496973 -0.066304855 -0.027471913 0.070575856
0.054827813 -0.012054402 0.03622101 0.029803878 0.035323735 0.004983976 -0.05740786 0.03308637
0.02072275 0.040822577 0.037677847 0.03653376 0.027881257 -0.052884754 0.009572626 -0.041056383
-0.017193094 -0.05424078 0.034429092 -0.096468315 -0.021847857 0.063356094 -0.04167239 0.010633227
-0.062004376 0.019783713 0.05812577 0.016038895 -0.037640005 -0.030232504 -0.028851649 -0.016846746
0.02195612 0.04711628 -0.060852647 0.0425784 0.050921243 -0.028109003 -0.056990348 0.014785513
-0.032489274 0.037052814 0.019151075 0.055996075 -0.048492253 0.03678337 0.03513096 -0.023674177
0.030629024 -0.033885542 -0.032017294 0.057391122 0.038150303 0.034227807 0.03180916 -0.04607571
-0.03553012 -0.03223119 0.03725165 -0.031371947 -0.029422525 0.015975563 -0.027988285 0.07053368
-0.050442196 0.055075254 0.031487573 -0.029514544 -0.044809658 0.045267425 -0.027598508 0.015130572
0.043784197 0.02324526 -0.020221882 0.06306179 0.024425682 0.022101048 0.03347358 0.025723232
0.027117621 -0.022419736 -0.050922655 -0.00053232413 0.024661265 0.03393626 -0.027294843 0.02422999
-0.04047818 -0.04807371 -0.027669948 0.021866871 0.037932627 0.005632541 -0.029180996 -0.018320363
-0.060978297 0.047879774 -0.0078429505 0.048711304 -0.07443308 -0.025862314 0.045587406 -0.016046772
0.0071153855 -0.06397719 0.030982489 0.06329369 0.022193898 -0.043808494 0.004329047 0.049697924
0.007096654 -0.05561285 0.02296419 0.07026726 0.049656834 -0.06170651 -0.009587265 0.012602242
00000000: 943c e8bc e5f8 49bd ba2d 193d e341 0f3d
00000010: d318 8d3d 497f 903d ab22 343d aa9d 5fbd
00000020: 76ae 93bd 2418 0b3d 563c 24bd 99e7 c7bc
00000030: c340 5ebd 9c01 3b3c 2e53 3a3d f1bd 0abd
00000040: ee5e ddbc c4f0 18bd 065d c5bc 17b6 38bd
00000050: f749 48bd 3ab3 6f3d 1808 59bc 003d 303d
00000060: 7dd5 c03c ef10 d93c d84a ebbc 4329 d43d
00000070: 254b 70bb c00b 67bd 01ee 013d db8e 24bc
00000080: 5372 813d 03e5 16bc 04a3 80bd 91ca b6bc
00000090: 97b6 1d3d 7d23 5c3c 6243 193d 286b 513c
000000a0: 029f 1abd 381a 0ebd df1f 7a3d e384 c5bc
000000b0: 0859 43bd 7c0f 1f3d 719f 6f3d c467 edbc
000000c0: 755f 303d 08f3 1fbd e339 c0bc 01db 70bd
000000d0: 108a 3e3d cc00 05bd 93f1 91bc 0956 333c
000000e0: 5869 f9bc a93a eb3c 15f8 123d ef27 1bbd
000000f0: 8bd0 d2bc 509c ecbc f042 b8bc 8be5 333d
00000100: d052 083d 3120 a53c 710a 1ebd 0904 9b3c
00000110: 1f25 0a3d d9e2 f6bc 611d 283d fcf2 89bd
00000120: 8c98 4f3d b9dc 51bd 06c6 16bd 66e4 2d3d
00000130: 83a1 383d 5d48 19bd 05f7 1d3d 20cd 2bbc
00000140: 5798 3dbd cc91 b1bc bd87 863c b9be 8dbd
00000150: a73b 05bd 4b64 1bbd 7eee 06bd efc1 eabc
00000160: 6a12 9cbc aef8 a93c ade3 653d 1706 6fbc
00000170: 9d55 0ebd 17ca 03bd fe05 0e3d 58ee 0bbd
00000180: 0046 5d3d feaf 323d dda6 143d 0f62 b4bc
00000190: 3f60 e0bc d427 c5bc 26f2 1c3c a884 dc3c
000001a0: 2cdc 423d c327 91bd f40b bc3c de34 41bd
000001b0: 1cdb b83d 0835 bf3b 2c38 35bd d90d c73c
000001c0: cb25 0c3c 247e 523d 47b9 d6bc b39d 5abd
000001d0: 3353 e4bc 67b2 393d 9ad6 b3bb 5232 a5bd
000001e0: da88 25bc c95b 763d dd86 a1bc 397e b6bd
000001f0: 840f 38bd 4839 7d3d b1a8 dc3b d23a 99bc
00000200: fa52 113d 3ca9 3d3d 9f2c f4bc a576 ecbc
00000210: 19b3 73bd d7ca 87bd c70c e1bc 138a 903d
00000220: 2193 603d d47f 45bc 7b5c 143d 4327 f43c
00000230: 9faf 103d 9f50 a33b 8124 6bbd 9385 073d
00000240: c2c2 a93c 9335 273d 1654 1a3d 6da4 153d
00000250: 3c67 e43c af9d 58bd 81d6 1c3c bd2a 28bd
00000260: 88d8 8cbc 952b 5ebd 8505 0d3d 2e91 c5bd
00000270: 47fa b2bc d7c0 813d abb0 2abd fd36 2e3c
00000280: 4df8 7dbd 7411 a23c 4a15 6e3d 0064 833c
00000290: 682c 1abd 28aa f7bc 4b5a ecbc 3002 8abc
000002a0: 52dd b33c 00fd 403d a040 79bd b066 2e3d
000002b0: cb92 503d da44 e6bc b66e 69bd f03e 723c
000002c0: 7913 05bd b1c4 173d b7e2 9c3c 245c 653d
000002d0: d09f 46bd 29aa 163d 7be5 0f3d 59f0 c1bc
000002e0: b8e9 fa3c 91cb 0abd 9124 03bd f412 6b3d
000002f0: 7e43 1c3d 7532 0c3d 524a 023d e2b9 3cbd
00000300: 0888 11bd da04 04bd 3095 183d df7f 00bd
00000310: 8207 f1bc 2fdf 823c b047 e5bc f673 903d
00000320: 7a9c 4ebd 9796 613d 1df9 003d 7cc8 f1bc
00000330: 558a 37bd 566a 393d 4416 e2bc 38e6 773c
00000340: 0f57 333d d86c be3c 5ca8 a5bc 8a26 813d
00000350: 5e18 c83c 420d b53c 981b 093d 87b9 d23c
00000360: c625 de3c 98a9 b7bc 4694 50bd ab8b 0bba
00000370: 6c06 ca3c bf00 0b3d 6f99 dfbc f97d c63c
00000380: 73cc 25bd f0e8 44bd 16ac e2bc 2722 b33c
00000390: 3e5f 1b3d 2e91 b83b fc0c efbc 9614 96bc
000003a0: 61c4 79bd 951d 443d b87f 00bc 8185 473d
000003b0: 5f70 98bd 34dd d3bc dcb9 3a3d 8574 83bc
000003c0: 2e28 e93b 7906 83bd fdce fd3c 1fa0 813d
000003d0: facf b53c 8970 33bd aeda 8d3b 0d90 4b3d
000003e0: 0c8b e83b 4dca 63bd 661f bc3c 48e8 8f3d
000003f0: f764 4b3d f7bf 7cbd e713 1dbc a279 4e3c

action_model._discrete_distribution.branches.0.bias f4 [2]
0.009099102 -0.009099099
00000000: 6614 153c 6314 15bc
