unity/SBGamesMLAgents/Assets/Basic/TFModels/MoveToGoal.onnx (onnx, 75098 bytes, 7 tensors)

network_body._body_endoder.seq_layers.0.weight f4 [128, 6]
-0.060882047 -0.35052004 0.30488402 0.011518449 0.075330086 -0.5032983 0.43265852 0.11885706
-0.4245831 -0.21461122 0.6604189 -0.27157205 -0.77676 -0.07841515 0.0022677814 -0.62317944
-0.45165414 0.11145555 -0.1038767 1.0977529 0.6880797 0.19348383 -0.56092376 0.5712014
0.20180348 -0.21529797 -0.0414238 0.22439389 -0.009867384 0.9933519 0.2478302 -0.10147924
-0.054953102 -0.40604848 0.80951244 -0.65557456 -0.38279986 0.29596883 0.055175662 -0.3485095
-0.3791298 -0.789712 -0.259615 -0.6137515 0.03454926 -0.024827056 0.1559982 -0.5079602
-0.21596189 -0.11443071 0.9691659 -0.8407503 -0.1322449 -0.15632814 -0.32753882 -0.047833912
0.32400092 0.16679758 0.84320515 0.48248404 -0.61598414 0.45889738 0.1283683 -0.6986926
0.065886706 -0.29769984 -0.45146963 0.11293589 0.10920743 -0.45080903 0.023795692 -0.022680204
-0.9232309 0.3769205 0.1732671 0.06813192 0.8448288 -0.5463066 0.43169227 0.9696555
-0.64541215 -0.09426047 -0.7105461 -0.34692812 0.0023510214 0.33514908 -0.33208168 0.13987245
-0.062253926 0.08874436 -0.22723693 0.20177795 0.047751803 -0.3678885 -0.2819749 -0.73887926
0.69744414 -0.06766391 -0.49615124 0.57472354 -0.33838058 -0.49035698 -0.2135474 -0.5642201
-0.016237639 0.32647374 -0.080072604 0.050724853 0.08329058 0.37961388 0.4821483 0.90316474
0.07604848 0.10829445 -0.55081373 -0.5544989 -0.64397436 0.31651008 -0.5277266 0.06722898
-1.139726 -0.48950273 0.015831245 0.19320966 -0.22021295 0.06523747 -0.6916749 0.18438847
0.43302625 0.35824183 -0.13058157 0.369825 -0.9596951 0.20001447 0.57410246 0.04341335
0.095151626 -0.7750333 -0.10666738 1.0677192 -0.37499854 -0.552456 0.12577994 0.25133094
-0.18016158 -0.09453497 -0.40403685 0.16078208 0.03334768 -0.41136363 0.07238361 -0.016025558
-0.10906911 0.0693935 -0.49749106 -0.053545006 0.51091725 0.27501565 0.32854584 -0.53748363
-0.19108576 0.23033419 -0.36930624 0.49430725 0.022020798 0.10823639 -0.28977886 0.58931285
0.0119661195 0.64977396 0.14092681 -0.8231873 -0.04833716 0.22080262 -0.2669011 -0.051216174
0.23276539 0.59782606 -0.097686104 0.016344499 -0.20962855 0.24882884 0.06874485 0.5722097
0.84585625 0.26330158 0.2858983 -0.0057461364 -0.0884398 -0.14754027 -0.03822308 -0.5304151
-0.21461466 0.30071262 0.37261996 -0.30524847 0.5960389 0.14280756 0.08302848 -0.05988696
0.14022948 -0.03830399 0.3607871 -0.28351906 0.06453067 -0.20879234 0.56697416 0.2368909
-0.19844414 -0.19771774 0.5577039 0.11212914 -0.5776382 -0.33528528 0.58080196 0.29814374
0.51244766 0.28253928 -0.8264126 0.3444853 -0.49426895 0.534101 0.33567947 0.21170908
-0.5075942 -0.16637118 1.0932889 -0.06994939 0.29035237 -0.12571774 -0.23531659 -0.31948
-0.474656 0.041272167 -0.42855963 0.6101035 0.3057794 -0.035461057 -0.38694945 -0.63712066
-0.4041949 -0.13975865 -0.27078024 -0.44614446 -0.10922068 -0.041078392 -0.043765046 -0.25117344
-0.21199857 0.34722543 -0.31532133 -0.24007921 0.060754925 0.09455318 0.55290633 -0.075327456
00000000: 745f 79bd 5d77 b3be c219 9c3e e0b7 3c3c
00000010: a946 9a3d 28d8 00bf 6b85 dd3e 556b f33d
00000020: f562 d9be 0bc3 5bbe 3711 293f 7e0b 8bbe
00000030: bed9 46bf 1f98 a0bd 0f9f 143b b088 1fbf
00000040: 363f e7be cf42 e43d 4fbd d4bd 2b83 8c3f
00000050: fe25 303f a020 463e b398 0fbf 413a 123f
00000060: 92a5 4e3e 1277 5cbe 01ac 29bd 83c7 653e
00000070: cfaa 21bc 4f4c 7e3f 33c7 7d3e 59d4 cfbd
00000080: 8116 61bd 96e5 cfbe 353c 4f3f bcd3 27bf
00000090: 58fe c3be 3a89 973e e0ff 613d d66f b2be
000000a0: 4d1d c2be 912a 4abf 42ec 84be d11e 1dbf
000000b0: 8683 0d3d 1c62 cbbc febd 1f3e ae09 02bf
000000c0: 1d25 5dbe a65a eabd 421b 783f 693b 57bf
000000d0: 356b 07be 7c14 20be 2bb3 a7be 7eed 43bd
000000e0: 73e3 a53e fccc 2a3e 4bdc 573f 2608 f73e
000000f0: 23b1 1dbf 99f4 ea3e fb72 033e 85dd 32bf
00000100: 9cef 863d 1d6c 98be 0727 e7be ef4a e73d
00000110: 25a8 df3d 71d0 e6be 2fef c23c d6cb b9bc
00000120: dc58 6cbf b9fb c03e ee6c 313e c088 8b3d
00000130: b346 583f c0da 0bbf c506 dd3e 583b 783f
00000140: bb39 25bf a20b c1bd 59e6 35bf 90a0 b1be
00000150: 9813 1a3b a998 ab3e 9c06 aabe b93a 0f3e
00000160: f9fd 7ebd 9abf b53d ccb0 68be e19e 4e3e
00000170: 6597 433d e25b bcbe 045f 90be 3127 3dbf
00000180: b38b 323f 6093 8abd 8907 febe 1521 133f
00000190: 3840 adbe 1210 fbbe 2bac 5abe ba70 10bf
000001a0: cc04 85bc 9127 a73e 1bfd a3bd ddc4 4f3d
000001b0: 4094 aa3d c05c c23e 24dc f63e ce35 673f
000001c0: 4ebf 9b3d 7bc9 dd3d 2102 0dbf a4f3 0dbf
000001d0: 81db 24bf 9c0d a23e 1719 07bf 59af 893d
000001e0: 8be2 91bf 1aa0 fabe 87b0 813c c1d8 453e
000001f0: 817f 61be 399b 853d 9b11 31bf 55d0 3c3e
00000200: 9eb5 dd3e 796b b73e 2db7 05be b459 bd3e
00000210: 94ae 75bf 98d0 4c3e 61f8 123f 32d2 313d
00000220: dbde c23d 9568 46bf 6d74 dabd 06ab 883f
00000230: cfff bfbe c26d 0dbf 75cc 003e 73ae 803e
00000240: 477c 38be 8d9b c1bd ebdd cebe 0fa4 243e
00000250: 9497 083d 419e d2be dc3d 943d 0848 83bc
00000260: a05f dfbd 2e1e 8e3d 26b7 febe 0252 5bbd
00000270: 79cb 023f dace 8c3e 2937 a83e 8798 09bf
00000280: fcab 43be badc 6b3e b515 bdbe d715 fd3e
00000290: f664 b43c 0aab dd3d e55d 94be 35dd 163f
000002a0: 8b0d 443c 9657 263f 1e4f 103e 67bc 52bf
000002b0: 30fd 45bd 151a 623e 43a7 88be 0dc8 51bd
000002c0: 0d5a 6e3e 210b 193f a70f c8bd e6e4 853c
000002d0: dea8 56be fdcc 7e3e 1aca 8c3d 567c 123f
000002e0: 098a 583f 77cf 863e 4361 923e 164a bcbb
000002f0: ed1f b5bd cc14 17be ce8f 1cbd 49c9 07bf
00000300: f2c3 5bbe 01f7 993e 0bc8 be3e 8749 9cbe
00000310: 0196 183f 253c 123e d60a aa3d 074c 75bd
00000320: 5198 0f3e a5e4 1cbd 16b9 b83e 6929 91be
00000330: a828 843d a9cd 55be 3825 113f 8793 723e
00000340: f134 4bbe 8576 4abe afc5 0e3f f6a3 e53d
00000350: 19e0 13bf 83aa abbe 70af 143f 4ca6 983e
00000360: c52f 033f fda8 903e c78f 53bf 6160 b03e
00000370: d210 fdbe d8ba 083f 2ede ab3e 44ca 583e
00000380: b2f1 01bf 355d 2abe e4f0 8b3f a041 8fbd
00000390: 11a9 943e 27bc 00be d5f6 70be e292 a3be
000003a0: 1c06 f3be 010d 293d 2b6c dbbe be2f 1c3f
000003b0: 1e8f 9c3e 9d3f 11bd 3d1e c6be 571a 23bf
000003c0: a2f2 cebe e41c 0fbe b5a3 8abe 0c6d e4be
000003d0: 18af dfbd d141 28bd fa42 33bd ce99 80be
000003e0: 2716 59be 88c7 b13e cc71 a1be 53d7 75be
000003f0: 28da 783d 19a5 c13d 458b 0d3f 4845 9abd

network_body._body_endoder.seq_layers.0.bias f4 [128]
0.08001709 0.028673775 -0.00090386916 -0.017612772 -0.021589693 -0.02106562 -0.0074500125 0.05537045
-0.113978416 -0.1230295 -0.011659959 0.011787861 -0.017389309 -0.029776903 0.044110794 -0.0074558347
-0.03840778 0.02332955 -0.001793481 0.029533654 -0.028917696 -0.015890213 -0.014173125 0.009995111
0.019216197 -0.033422116 -0.05551963 -0.00087217824 -0.013931016 0.0034062222 0.012530639 0.009630687
-0.031249652 -0.005958735 -0.008658745 0.011904912 0.026762877 -0.0010922297 -0.072582364 0.015884114
-0.016970892 0.011106161 0.027185699 -0.035587538 -0.03571697 -0.01871363 0.053308576 -0.0014501214
-0.0060345707 0.0026083319 -0.030026613 -0.07772352 -0.021471048 -0.020966576 0.060821474 0.020456059
0.019147312 -0.014593471 0.006549947 -0.039016183 -0.015814796 -0.0056904675 0.021432264 -0.036576368
-0.039450668 0.020114424 0.06326392 -0.0024373815 0.07061093 -0.020823693 -0.028801477 0.016648266
-0.011443495 -0.007287535 -0.0528993 -0.02178506 -0.018197764 0.029510992 -0.02725387 -0.085616514
0.010808974 -0.070016146 0.0039694747 0.057098188 -0.013472134 0.0055377474 0.0060258317 -0.021868022
-0.0009132335 -0.082390726 -0.016311893 0.0017682699 -0.030215427 -0.00517058 -0.030173441 0.004854058
0.041454535 -0.028352786 0.05665407 -0.014830986 -0.031710807 -0.011231088 0.01486232 -0.08818299
0.053683814 -0.041060627 -0.031232143 0.014246045 0.004785803 -0.07212199 0.013507801 -0.008113469
-0.0016879786 0.011386676 -0.02559844 -0.032599304 -0.02910821 -0.030715788 -0.13878195 0.052271668
0.01580043 0.011740996 -0.053573355 -0.04087482 -0.011795486 0.012940214 0.040149555 -0.077652976
00000000: 00e0 a33d 44e5 ea3c a2f1 6cba a948 90bc
00000010: dedc b0bc cf91 acbc 3c1f f4bb 20cc 623d
00000020: 846d e9bd e4f6 fbbd 6a09 3fbc df21 413c
00000030: 0674 8ebc b1ee f3bc 85ad 343d 1350 f4bb
00000040: 7a51 1dbd 9d1d bf3c 3c13 ebba 90f0 f13c
00000050: cee4 ecbc 312c 82bc 6536 68bc 89c2 233c
00000060: 496b 9d3c a1e5 08bd 8d68 63bd e4a2 64ba
00000070: eb3e 64bc ed3a 5f3b 4f4d 4d3c 07ca 1d3c
00000080: 45ff ffbc 7e41 c3bb 69dd 0dbc d20c 433c
00000090: d23d db3c 2629 8fba 10a6 94bd 671f 823c
000000a0: 8a06 8bbc 9ef6 353c 8bb4 de3c 3dc4 11bd
000000b0: f54b 12bd 544d 99bc 185a 5a3d 0012 beba
000000c0: a6bd c5bb 8cf0 2a3b 5ffa f5bc 822d 9fbd
000000d0: 0de4 afbc 19c2 abbc f01f 793d 7793 a73c
000000e0: d3da 9c3c 7419 6fbc f0a0 d63b 6fcf 1fbd
000000f0: 088e 81bc 1a77 babb b792 af3c 1ad1 15bd
00000100: 0697 21bd 01c7 a43c 8490 813d 7abc 1fbb
00000110: 779c 903d 7396 aabc 13f1 ebbc f261 883c
00000120: 7f7d 3bbc 46cc eebb f0ac 58bd 9576 b2bc
00000130: 7a13 95bc 09c1 f13c 8243 dfbc b657 afbd
00000140: 1f18 313c a064 8fbd 5e12 823b cadf 693d
00000150: 3aba 5cbc fe75 b53b 5774 c53b 9124 b3bc
00000160: 1066 6fba 78bc a8bd 85a0 85bc 4bc5 e73a
00000170: 5886 f7bc f86d a9bb 4b2e f7bc ca0e 9f3b
00000180: 3bcc 293d 1a44 e8bc 190e 683d aafd 72bc
00000190: 31e3 01bd 9902 38bc 1781 733c 4999 b4bd
000001a0: 8fe3 5b3d 302f 28bd 8dda ffbc 3e68 693c
000001b0: 3ad2 9c3b b2b4 93bd d34f 5d3c 5bee 04bc
000001c0: 2a3f ddba 2e8f 3a3c d2b3 d1bc d986 05bd
000001d0: 5774 eebc ad9f fbbc db1c 0ebe d11a 563d
000001e0: e76f 813c 4e5d 403c bc6f 5bbd 5b6c 27bd
000001f0: db41 41bc 3103 543c dc73 243d 8608 9fbd

network_body._body_endoder.seq_layers.2.weight f4 [128, 128]
0.16625623 -0.029482689 0.069383375 0.05611847 -0.04911431 0.024735006 0.13748334 0.094332136
-0.120122775 -0.107640006 -0.023795264 -0.04066561 -0.0455442 0.14894056 0.0088944575 -0.28517953
0.034586325 -0.013668642 -0.075557336 0.007895611 0.10683957 0.06910518 0.19419704 -0.037699968
0.21811895 0.085342266 0.023051243 -0.014382543 -0.08040057 0.038750786 -0.058901038 0.088006295
-0.052625995 0.1322377 -0.037868865 -0.07633792 0.028886719 -0.11701913 -0.03561523 0.04721099
0.17469616 0.04678653 -0.009084577 -0.08357551 -0.03184445 -0.03755644 -0.0020803735 0.10224811
0.06372681 -0.07291958 -0.05754706 0.054479945 -0.06346572 -0.2045228 -0.079507485 0.14846937
-0.059957597 -0.060764942 -0.05439852 -0.05045556 -0.0780394 -0.009364378 0.043744005 0.14206192
0.12396138 -0.011186072 0.17717156 -0.19532683 -0.050986405 -0.0037216856 0.08124703 0.1274354
-0.019051988 0.05424587 -0.028540008 0.006046755 -0.032292306 -0.020413391 0.17627284 -0.0039768782
0.077542156 0.04326144 0.10067208 -0.108238764 -0.16307276 -0.004322019 -0.103246324 -0.13840397
0.0016671807 -0.047411587 0.014080144 -0.09301127 0.054635487 -0.022071827 0.027022863 -0.032120556
-0.016782308 -0.006576562 -0.019533707 0.027330732 0.021548865 -9.685709e-05 -0.052037 -0.053962134
-0.046936583 0.08729055 -0.13831584 -0.043700542 0.0742461 -0.059885677 0.024329666 -0.014192697
0.051078595 0.001089065 -0.056687396 0.009491094 -0.10287256 -0.026495855 0.14626125 -0.14746314
-0.028326306 0.025802042 0.121046774 -0.06147448 -0.08678096 -0.007093397 0.041100107 -0.057568554
0.06353615 0.0172308 0.03547581 -0.02640922 -0.039146546 -0.09267935 -0.033938795 0.008735439
-0.09466364 -0.26275134 -0.057922427 0.034913678 0.004547299 0.1855988 -0.00087967445 0.21385184
-0.051322814 -0.043469686 -0.16701259 -0.018686848 -0.06926761 -0.046620518 -0.085429385 0.021854691
0.17247711 -0.057841394 -0.00482176 -0.101811364 0.07937838 -0.0805155 0.06437599 0.0461698
-0.122517996 -0.07735725 -0.115203805 0.058711298 -0.08027395 0.0063650887 0.089227885 -0.05252793
-0.084537596 0.064584725 0.1548996 0.024352517 -0.088379145 -0.025387608 -0.14978091 -0.06106766
-0.0560548 -0.091431156 0.078114025 0.12126916 -0.019747773 0.04892787 0.082642496 0.20137264
0.108957335 -0.06180848 -0.21253504 0.011163159 0.02977175 -0.0004917088 -0.10485208 0.0623269
-0.034862068 0.037331793 0.09322912 -0.036051795 0.08995428 0.01440198 -0.0032379378 -0.11441861
-0.05936818 0.22715269 -0.024633974 -0.098817326 0.12209644 0.15920994 0.23319153 0.02433831
-0.07585832 -0.06403996 0.07641685 0.024005918 -0.062318638 -0.20037249 -0.18749882 -0.005693083
-0.036003478 -0.032503378 0.1999172 -0.15413311 -0.15610945 -0.036376778 0.095153056 -0.21119407
0.0008103177 0.034732293 -0.075146906 0.14011826 0.072700806 0.06030444 -0.025679715 0.11093865
0.074934155 0.18970975 -0.0044947583 0.08041331 0.03789469 -0.030179586 -0.08224624 -0.048965685
0.00088634714 -0.2275999 0.0995122 0.02367378 -0.007373023 -0.03399437 -0.008300733 0.0333831
-0.014642069 0.14308432 0.05898762 0.07862743 0.026859937 -0.02484858 0.028785985 0.17912264
00000000: 133f 2a3e ae85 f1bc df18 8e3d 7bdc 653d
00000010: 162c 49bd 11a1 ca3c 6fc8 0c3e 3531 c13d
00000020: ee02 f6bd 5d72 dcbd 49ee c2bc fc90 26bd
00000030: 8e8c 3abd e083 183e 0fba 113c 0d03 92be
00000040: 64aa 0d3d 71f2 5fbc cebd 9abd 985c 013c
00000050: b4ce da3d 0487 8d3d 97db 463e 486b 1abd
00000060: 935a 5f3e edc7 ae3d f6d5 bc3c c2a4 6bbc
00000070: 0ea9 a4bd 25b9 1e3d 3742 71bd a53c b43d
00000080: 5b8e 57bd 5269 073e 621c 1bbd 0e57 9cbd
00000090: d7a3 ec3c baa7 efbd 47e1 11bd 5060 413d
000000a0: 8de3 323e 3ca3 3f3d 7ad7 14bc a329 abbd
000000b0: 536f 02bd c8d4 19bd e056 08bb 7567 d13d
000000c0: 3483 823d dc56 95bd 77b6 6bbd 5d26 5f3d
000000d0: 51fa 81bd 6d6e 51be d2d4 a2bd 5b08 183e
000000e0: 1996 75bd a9e4 78bd fcd0 5ebd 7daa 4ebd
000000f0: 1fd3 9fbd 0c6d 19bc ea2c 333d ae78 113e
00000100: 77df fd3d c945 37bc 766c 353e c203 48be
00000110: 1fd7 50bd 86e7 73bb d864 a63d 6d7e 023e
00000120: ea12 9cbc eb30 5e3d bccc e9bc db23 c63b
00000130: f044 04bd fc39 a7bc de80 343e 7950 82bb
00000140: 6cce 9e3d e832 313d 2a2d ce3d 49ac ddbd
00000150: 8cfc 26be b99f 8dbb cf72 d3bd c5b9 0dbe
00000160: 4d85 da3a a732 42bd 68b0 663c b17c bebd
00000170: 76c9 5f3d facf b4bc 0d5f dd3c d890 03bd
00000180: 0d7b 89bc 3380 d7bb 2705 a0bc b3e4 df3c
00000190: 3f87 b03c c11f cbb8 c024 55bd 6607 5dbd
000001a0: 9340 40bd 63c5 b23d aba2 0dbe 57ff 32bd
000001b0: 570e 983d af4a 75bd 024f c73c 7c88 68bc
000001c0: ca37 513d f5be 8e3a 0b31 68bd 8980 1b3c
000001d0: d9ae d2bd d60d d9bc 82c5 153e 9400 17be
000001e0: 920c e8bc ce5e d33c 5fe7 f73d aacc 7bbd
000001f0: 37ba b1bd ba6f e8bb 9658 283d 01cd 6bbd
00000200: 3e1f 823d 9b27 8d3c 154f 113d 2658 d8bc
00000210: 2158 20bd acce bdbd 6803 0bbd 161f 0f3c
00000220: 03df c1bd 5887 86be 1140 6dbd a501 0f3d
00000230: 8201 953b 9d0d 3e3e f499 66ba fafb 5a3e
00000240: df37 52bd 450d 32bd 5905 2bbe 2915 99bc
00000250: 2ddc 8dbd 28f5 3ebd 9af5 aebd 9c08 b33c
00000260: d79d 303e 19eb 6cbd dbff 9dbb 7a82 d0bd
00000270: 2291 a23d 4fe5 a4bd 8fd7 833d 8b1c 3d3d
00000280: b7ea fabd 7a6d 9ebd f9ef ebbd 427b 703d
00000290: ab66 a4bd 3c92 d03b 1cbd b63d 8727 57bd
000002a0: 0c22 adbd ff44 843d 009e 1e3e ee7e c73c
000002b0: 2000 b5bd acf9 cfbc 2b60 19be 1522 7abd
000002c0: b899 65bd 4240 bbbd 3ffa 9f3d f75b f83d
000002d0: 15c6 a1bc 9768 483d 7840 a93d a134 4e3e
000002e0: 0625 df3d e42a 7dbd c9a2 59be afe5 363c
000002f0: e3e3 f33c 05e6 00ba b0bc d6bd 7e4a 7f3d
00000300: 87cb 0ebd 39e9 183d e9ee be3d 0cab 13bd
00000310: f339 b83d 48f6 6b3c 9533 54bb 4e54 eabd
00000320: 0c2c 73bd b79a 683e 30cd c9bc bd60 cabd
00000330: b30d fa3d ee07 233e c3c9 6e3e 2361 c73c
00000340: 9b5b 9bbd 6227 83bd 7080 9c3d 0fa8 c43c
00000350: d441 7fbd 722e 4dbe b1ff 3fbe 0b8d babb
00000360: 6278 13bd 4322 05bd 18b7 4c3e 12d5 1dbe
00000370: 28db 1fbe d1ff 14bd 9bdf c23d 4243 58be
00000380: 806b 543a 7343 0e3d 9fe6 99bd 297b 0f3e
00000390: 29e4 943d ca01 773d 445e d2bc ce33 e33d
000003a0: 1477 993d 4643 423e c448 93bb bcaf a43d
000003b0: 7637 1b3d 2e3b f7bc b770 a8bd 3e90 48bd
000003c0: c059 683a f30f 69be 0dcd cb3d 84ef c13c
000003d0: 6699 f1bb ae3d 0bbd ccff 07bc b8bc 083d
000003e0: 4ae5 6fbc b284 123e 019d 713d 6b07 a13d
000003f0: 5f09 dc3c 408f cbbc 96d0 eb3c ed6b 373e

network_body._body_endoder.seq_layers.2.bias f4 [128]
-0.04577908 -0.042486537 0.016905246 0.0012942482 0.009472333 -0.029530803 -0.029644473 -0.008975462
-0.010871485 0.009342782 -0.08551228 0.004607569 -0.035125516 0.020121967 0.05334606 -0.022973467
-0.012059583 -0.02631753 0.00787417 0.019624786 0.0064271567 -0.066968076 0.007437329 -0.046887767
-0.009736637 -0.017958406 -0.01542503 0.04498234 0.027339391 0.01696819 -0.05862515 -0.0045282934
0.011479938 -0.012668265 -0.023633065 -0.067563504 -0.071248434 -0.004606917 -0.025843631 0.014258129
0.045481984 0.030964194 0.012508166 0.04934363 0.024389796 -0.048578057 0.0322277 -0.015863728
-0.02336403 -0.0055869413 0.020665646 0.012650081 -0.01194019 -0.06108245 0.027234143 -0.027317246
-0.019638736 -0.005349901 -0.03120886 -0.07588657 0.018309632 0.009838031 0.0037934917 0.04401967
-0.00043580396 -0.011743403 -0.04190559 -0.023409726 -0.01779681 -0.049234018 -0.055089206 0.019590301
0.015181545 -0.020339191 0.040422916 0.04407008 0.018108767 -0.021303084 -0.014542972 -0.042629566
-0.0049055563 0.0074536903 -0.0602898 0.036516048 0.010506196 0.026421688 -0.10390892 -0.0055006854
0.014706678 -0.049538318 -0.050233856 0.019615738 0.024742384 0.004877129 0.058203693 -0.024170402
-0.03218084 -0.05525918 0.00032494366 0.029263487 0.0066459286 -0.084905915 0.008653168 -0.061641064
0.026235232 -0.051810972 0.006316598 -0.018881524 -0.01612567 -0.005499431 0.0037979574 -0.023713596
0.020251246 0.018988784 0.02159697 0.0042304993 -0.06912229 -0.0013075819 0.014598607 -0.018341364
-0.015803825 0.0017115013 0.0024919733 0.0030697137 -0.021579597 0.035628926 0.02751699 0.053141452
00000000: d882 3bbd 5d06 2ebd df7c 8a3c c3a3 a93a
00000010: d831 1b3c 95ea f1bc f7d8 f2bc d10d 13bc
00000020: 501e 32bc 7812 193c 1021 afbd 17fb 963b
00000030: c6df 0fbd d3d6 a43c 6681 5a3d da32 bcbc
00000040: 8f95 45bc dc97 d7bc aa02 013c 29c4 a03c
00000050: e69a d23b 8f26 89bd d6b4 f33b 630d 40bd
00000060: 6a86 1fbc 821d 93bc 44b9 7cbc 673f 383d
00000070: dcf6 df3c e000 8b3c ed20 70bd 1462 94bb
00000080: 5a16 3c3c 8e8e 4fbc 219a c1bc bc5e 8abd
00000090: b3ea 91bd 9ff5 96bb 06b6 d3bc ed9a 693c
000000a0: 514b 3a3d 9fa8 fd3c 0def 4c3c 8c1c 4a3d
000000b0: 1ccd c73c c9f9 46bd 3101 043d a6f4 81bc
000000c0: ec65 bfbc a912 b7bb 004b a93c 4942 4f3c
000000d0: c9a0 43bc 9731 7abd 231a df3c 6bc8 dfbc
000000e0: 6ae1 a0bc 394e afbb b9a9 ffbc 6b6a 9bbd
000000f0: 15fe 953c b12f 213c 3b9c 783b f84d 343d
00000100: 9e7c e4b9 6767 40bc 32a5 2bbd c1c5 bfbc
00000110: 9eca 91bc 9ca9 49bd 38a5 61bd d77b a03c
00000120: 04bc 783c 609e a6bc 8092 253d d482 343d
00000130: d658 943c ce83 aebc a545 6ebc 579c 2ebd
00000140: cabe a0bb 163e f43b 70f2 76bd da91 153d
00000150: 2e22 2c3c 4c72 d83c 33ce d4bd 183f b4bb
00000160: 47f4 703c b1e8 4abd 04c2 4dbd 2fb1 a03c
00000170: 8ab0 ca3c 53d0 9f3b ff66 6e3d 0201 c6bc
00000180: 0ed0 03bd 7357 62bd 335d aa39 fbb9 ef3c
00000190: 17c6 d93b 27e3 adbd 04c6 0d3c 577b 7cbd
000001a0: 45eb d63c be37 54bd 77fb ce3b 6dad 9abc
000001b0: fb19 84bc 9234 b4bb 27e7 783b 0443 c2bc
000001c0: f1e5 a53c 5e8e 9b3c 21ec b03c 00a0 8a3b
000001d0: fd8f 8dbd 2b63 abba ff2e 6f3c a140 96bc
000001e0: 0677 81bc 7454 e03a 6050 233b 402d 493b
000001f0: b2c7 b0bc a3ef 113d 506b e13c daaa 593d

action_model._continuous_distribution.log_sigma f4 [1, 2]
-0.10026594 0.10975749
00000000: 3b58 cdbd 89c8 e03d

action_model._continuous_distribution.mu.weight f4 [2, 128]
0.0015620419 -0.0024086155 0.032958183 0.019871013 0.026110861 0.014178469 -0.016200494 0.0041469154
-0.00044785102 0.05943542 0.0058382484 0.0016008525 -0.0021734727 0.029443704 -0.054452457 -0.0153628895
-0.018380178 0.030621605 0.023742264 0.011972069 -0.050375964 -0.02181817 -0.044887036 -0.0014001754
-0.04614016 0.0005402342 0.009227981 -0.069129765 0.024052972 0.021376401 0.0006056059 -0.05305746
0.0095625175 -0.010644069 -0.0158369 0.020853529 0.0031063731 -0.012267488 -0.0015218498 -0.0449994
0.08239187 -0.038282417 0.018491117 -0.06898202 -0.0011324398 -0.0074431547 0.008394458 0.019429956
0.0031078267 -0.04324002 -0.030149449 -0.010243538 0.032107115 0.001599354 -0.03234847 -0.0026852735
-0.009114527 -0.027364148 0.00374131 0.00082910823 0.018195584 -0.052879084 -0.0030167515 0.062003627
-0.013590448 -0.01229449 -0.0045535793 -0.013351155 0.017662058 -0.013133254 -0.0065291203 0.04027489
-0.00327801 -0.0054347557 -0.06656496 0.012408606 0.01941694 -0.013963724 -0.0021559906 0.00070423365
0.009240417 0.024020746 0.0055688987 -0.030912504 0.052225936 0.05725849 0.011147456 -0.027680935
0.014882862 0.00777039 0.0022286444 -0.03365014 0.042499706 0.0033328608 0.044016283 0.021012725
-0.0047216695 0.043029517 -0.0020405783 0.07353531 0.045471847 0.012658564 -0.03804722 0.04417639
-0.017056005 0.012117382 0.013313505 -0.010267909 0.00078777067 0.013716618 0.012642759 -0.007667116
-0.02430143 -0.022053394 -0.052135922 0.028086731 0.003420673 -0.02025024 0.02567018 -0.0039476035
0.017741207 0.0019558363 0.05139467 -0.004835485 -0.018414384 0.06959993 0.054146595 -0.035701238
-0.025606308 -0.0036160662 -0.059859477 -0.057239227 -0.013673039 -0.0016477577 0.007171552 0.040086567
0.039885897 -0.041916475 -0.03379381 0.014035684 0.000597196 0.04347068 0.05211052 -0.0126156
0.0015952069 -0.018550724 0.022149002 0.028021665 -0.02203041 -0.06695152 -0.038277123 0.0057009347
-0.0070665316 -0.025359202 -0.024032924 -0.009205976 -0.059263203 0.014004647 -0.061232384 -0.0085345525
-0.04622416 -0.0019215876 -0.022380799 -0.044151902 -0.012819532 -0.027186751 0.01877948 -0.05910846
0.013353754 -0.040965345 0.038080655 0.01669904 0.023456004 -0.032278586 0.062133424 -0.010964092
0.0042387424 -0.017431503 0.018628871 -0.0401617 -0.054814134 -0.033109266 0.0152626205 -0.00045704588
-0.032073755 -0.010435612 -0.004531447 -0.022424657 -6.097867e-05 0.020705825 0.02072952 0.0105591705
-0.002774551 0.0030001102 -0.001097387 -0.015026479 0.006415842 -0.016543025 -0.0045370264 -0.009903004
-0.03703029 0.025477495 -0.02747958 0.079774775 0.005361215 0.008429575 -0.009998159 -0.025982607
0.027478937 -0.0021680908 -0.034653954 0.057932183 0.009376083 -0.015791085 -0.030608924 -0.03219475
0.017063808 -0.032074828 -0.029460836 0.006608105 0.050756205 -0.008535972 -0.07889589 0.033862356
0.019297529 -0.058182627 -0.03676969 -0.039273456 0.01392007 -0.017265724 0.00802925 -0.03810724
0.049681947 -0.0650573 -0.051784936 -0.012601264 0.03025575 -0.04940563 -0.02285572 -0.025911847
0.054880507 0.057272032 0.029167958 -0.0745706 -0.027285874 -0.036394607 -0.046032645 0.009491105
-0.038394082 0.050981026 -0.010499104 -0.038370233 0.00018805765 -0.036275875 -0.047249503 0.093318306
00000000: 6ebd cc3a ddd9 1dbb 29ff 063d 89c8 a23c
00000010: 72e6 d53c cf4c 683c e6b6 84bc d9e2 873b
00000020: 8ccd eab9 8e72 733d c74e bf3b b2d3 d13a
00000030: d270 0ebb ec33 f13c 8a09 5fbd a1b4 7bbc
00000040: 0792 96bc 29da fa3c 237f c23c 7f26 443c
00000050: 0757 4ebd 05bc b2bc 78db 37bd 1786 b7ba
00000060: 77fd 3cbd 819e 0d3a f530 173c e893 8dbd
00000070: bd0a c53c 901d af3c 86c1 1e3a c752 59bd
00000080: 1bac 1c3c 7664 2ebc 63bc 81bc 05d5 aa3c
00000090: 4b94 4b3b 93fd 48bc ce78 c7ba 4a51 38bd
000000a0: 12bd a83d 06ce 1cbd af7a 973c 7246 8dbd
000000b0: 606e 94ba b5e5 f3bb e988 093c 922b 9f3c
000000c0: aeac 4b3b 721c 31bd fafb f6bc 83d4 27bc
000000d0: c082 033d 6aa1 d13a d47f 04bd 6afb 2fbb
000000e0: 1955 15bc c72a e0bc c430 753b 8358 593a
000000f0: e80e 953c bd97 58bd b1b4 45bb 84f7 7d3d
00000100: 78aa 5ebc d46e 49bc 3136 95bb cebe 5abc
00000110: 05b0 903c dc2c 57bc 3bf2 d5bb 48f7 243d
00000120: e2d3 56bb 0916 b2bb 3653 88bd 774d 4b3c
00000130: 4610 9f3c 1ac8 64bc 854b 0dbb 529c 383a
00000140: 1e65 173c 28c7 c43c 4f7b b63b 383c fdbc
00000150: ddea 553d e187 6a3d d2a3 363c 21c3 e2bc
00000160: 3fd7 733c c19e fe3b 730e 123b bbd4 09bd
00000170: 2c14 2e3d 206c 5a3b 6b4a 343d e122 ac3c
00000180: 3cb8 9abb b83f 303d 39bb 05bb ae99 963d
00000190: b040 3a3d de65 4f3c 67d7 1bbd 4df2 343d
000001a0: 09b9 8bbc fc87 463c e320 5a3c bb3a 28bc
000001b0: 6582 4e3a aabb 603c 9323 4f3c 6e3c fbbb
000001c0: cb13 c7bc 52a9 b4bc 7a8c 55bd 2516 e63c
000001d0: 5f2d 603b d5e3 a5bc 454a d23c e65a 81bb
000001e0: 0256 913c 7d2d 003b 3883 523d fd72 9ebb
000001f0: c3d9 96bc 688a 8e3d d2c8 5d3d 763b 12bd
00000200: 52c4 d1bc 86fb 6cbb 362f 75bd ae73 6abd
00000210: e204 60bc 93f9 d7ba 57ff ea3b d031 243d
00000220: 655f 233d 9cb0 2bbd 616b 0abd edf5 653c
00000230: 258d 1c3a 500e 323d d771 553d a9b1 4ebc
00000240: 4316 d13a b0f7 97bc d371 b53c b18d e53c
00000250: 1e79 b4bc e11d 89bd 79c8 1cbd e8ce ba3b
00000260: 5d8e e7bb 1abe cfbc b2e0 c4bc a9d4 16bc
00000270: f9bd 72bd bf73 653c cfce 7abd 82d4 0bbc
00000280: 8b55 3dbd c8dd fbba f057 b7bc a0d8 34bd
00000290: 0409 52bc c0b6 debc 6dd7 993c b61b 72bd
000002a0: b4c9 5a3c 47cb 27bd 76fa 1b3d 6dcc 883c
000002b0: ce26 c03c 8d36 04bd 9e7f 7e3d bca2 33bc
000002c0: 26e5 8a3b 83cc 8ebc 939b 983c 9880 24bd
000002d0: c984 60bd 959d 07bd 1210 7a3c a99f efb9
000002e0: c55f 03bd 21fa 2abc 887c 94bb eab3 b7bc
000002f0: 59c3 7fb8 439f a93c f4d0 a93c 5f00 2d3c
00000300: 3ed5 35bb 7f9d 443b 33d6 8fba 9f31 76bc
00000310: fc3b d23b 3d85 87bc 56ab 94bb 3640 22bc
00000320: 13ad 17bd 2eb6 d03c db1c e1bc f560 a33d
00000330: 22ad af3b 331c 0a3c 51cf 23bc 7ad9 d4bc
00000340: 821b e13c 8716 0ebb 4ef1 0dbd 4c4a 6d3d
00000350: 249e 193c 4e5c 81bc 91bf fabc a4de 03bd
00000360: 66c9 8b3c e560 03bd da57 f1bc cd88 d83b
00000370: bde5 4f3d 76da 0bbc 2b94 a1bd 41b3 0a3d
00000380: da15 9e3c e850 6ebd d19b 16bd 34dd 20bd
00000390: 0111 643c d970 8dbc 1e8d 033c 5616 1cbd
000003a0: 4c7f 4b3d c33c 85bd 711c 54bd 8875 4ebc
000003b0: e8da f73c 8f5d 4abd eb3b bbbc 1545 d4bc
000003c0: 62ca 603d 1496 6a3d a4f1 ee3c 79b8 98bd
000003d0: a086 dfbc 8312 15bd ba8c 3cbd 9480 1b3c
000003e0: 1d43 1dbd 7bd1 503d 6f04 2cbc 1b2a 1dbd
000003f0: 5731 4539 0396 14bd b288 41bd ab1d bf3d

action_model._continuous_distribution.mu.bias f4 [2]
-0.004568528 0.017131539
00000000: 97b3 95bb 7157 8c3c
